cartpole_ppo_policy.pth (torch, 39392 bytes, 9 tensors)

shared.0.weight f4 [64, 4]
-0.59438497 0.29114065 -0.01837325 0.34215847 -0.37692395 0.2596779 0.42428493 0.15535945
0.31310955 -0.042548023 -0.21501575 -0.15719013 0.27687252 -0.5998631 -0.42098722 0.44932532
-0.40940458 -0.57811654 -0.9289158 -0.47091317 0.014087878 0.49962792 -0.25154668 -0.08793692
0.47417602 -0.4529576 0.20668727 0.055359088 0.23952337 0.26347083 0.057037577 0.43043098
0.2531927 -0.3125378 -0.15942985 -0.28692067 0.2588408 0.24683182 -0.15283836 -0.15243423
-0.32619354 0.48867628 0.3735729 -0.19794951 -0.065912105 0.13676037 0.019971095 -0.12818263
0.044505555 0.07148112 0.3151815 0.2083838 0.40157267 -0.42630392 -0.5579125 -0.37066934
0.13072781 -0.5726923 0.59955394 0.3595185 -0.04950273 -0.16001274 0.10297554 0.19439703
0.23905848 -0.25961703 0.42485958 -0.3072841 -0.040658556 0.4012136 0.508291 0.31134793
0.22508377 -0.2554592 -0.2486473 0.122571185 0.24181673 -0.098096535 -0.44364712 -0.21982737
0.08655721 -0.27944362 -0.059484966 -0.07768939 0.32786593 -0.5243144 0.18559858 0.23362866
0.7626062 0.33867118 0.62270474 -0.22397636 -0.13894759 0.46953163 -0.19833545 -0.3948618
0.17994745 -0.4664111 -0.46325424 0.40582126 0.53582484 0.4622962 0.7580857 0.42974654
-0.20607689 0.12553664 0.14973406 0.22400504 -0.37169328 0.48371932 0.045370404 0.15317202
0.12753053 0.17201659 0.53937244 0.25459874 -0.101330526 -0.14044966 0.38349894 0.053763367
-0.14325911 0.04430819 -0.31672755 -0.16108769 0.25007364 0.13315311 -0.36577892 -0.025932718
0.23900914 0.4768228 1.1817937 0.38354126 0.10946763 0.2651874 0.42893195 -0.14659739
-0.3478634 0.08684285 0.5485187 -0.21589543 0.19306162 0.40089843 0.04300219 0.024834897
-0.1596267 0.15504803 0.16107807 -0.2313309 0.6886258 0.2683958 0.6687318 0.17318346
0.1373518 0.2992923 -0.34629256 0.40895006 -0.024786662 -0.41160196 -0.27261287 -0.34120294
-0.33358082 -0.11929779 -1.0424979 -0.2287852 -0.11941866 0.3894997 -0.18996292 -0.078566305
0.3725756 0.34403756 1.1394659 0.33472666 0.72011155 -0.40923852 0.107543714 -0.5350378
0.36317745 0.055582095 0.93038595 0.5148263 -0.8787309 0.12376954 -0.36430615 -0.08111724
0.67245126 0.37585244 0.59763724 0.5324641 -0.28181443 0.38592166 0.2321852 0.25090748
-0.31691018 0.31322807 0.097282715 0.22578306 -0.29825178 0.33018997 0.30093902 0.06462991
-0.24763541 -0.16354102 0.5956731 0.030079447 0.34592617 0.20219325 0.918969 0.39463192
-0.18294676 -0.33622903 0.11693971 0.2914805 -0.48457336 0.26966015 -0.94340634 -0.4047821
0.37330732 0.023537856 -0.6292083 -0.3579432 -0.36485642 0.36479336 -0.27642584 -0.17380181
-0.28656626 -0.4963798 -0.4221585 0.12577938 -0.119949475 -0.11475715 0.30454665 0.048297867
0.018073674 -0.2902772 -0.29023767 -0.02591668 0.14655232 0.2438784 0.27135566 0.34154722
0.22845927 0.47837096 -0.45154315 -0.07174002 -0.98726696 -0.43009952 -0.3939852 0.1004333
0.16739763 -0.36011875 -0.095780395 0.20406136 0.05313194 -0.13663712 -0.16645516 0.024908176
00000000: 9d29 18bf 6310 953e 7f83 96bc 652f af3e
00000010: 2dfc c0be 80f4 843e e03b d93e 8c16 1f3e
00000020: e54f a03e d646 2ebd 172d 5cbe 73f6 20be
00000030: 3cc2 8d3e a190 19bf a38b d7be f80d e63e
00000040: 7a9d d1be 72ff 13bf 6dcd 6dbf 881b f1be
00000050: d8d0 663c 3bcf ff3e baca 80be 4618 b4bd
00000060: 33c7 f23e 0fea e7be d4a5 533e 36c0 623d
00000070: 9d45 753e a6e5 863e 3ca0 693d 7361 dc3e
00000080: 79a2 813e f404 a0be 9441 23be 44e7 92be
00000090: c886 843e 7bc1 7c3e a981 1cbe b817 1cbe
000000a0: d702 a7be c733 fa3e f244 bf3e 47b3 4abe
000000b0: edfc 86bd e90a 0c3e 6c9a a33c 4f42 03be
000000c0: 754b 363d b264 923d 785f a13e 9062 553e
000000d0: ef9a cd3e 8244 dabe 5bd3 0ebf 5fc8 bdbe
000000e0: 83dd 053e f69b 12bf 5e7c 193f cf12 b83e
000000f0: 60c3 4abd 61da 23be d7e4 d23d 0410 473e
00000100: bfcb 743e 86ec 84be 3287 d93e 5754 9dbe
00000110: 9689 26bd de6b cd3e 5c1f 023f ff68 9f3e
00000120: 5c7c 663e 8ccb 82be 669d 7ebe 9a06 fb3d
00000130: ce9e 773e d6e6 c8bd b725 e3be 6d1a 61be
00000140: e844 b13d 3c13 8fbe 82a6 73bd 9d1b 9fbd
00000150: 0bde a73e 7839 06bf 8e0d 3e3e 5a3c 6f3e
00000160: 293a 433f 4f66 ad3e 9469 1f3f 0f5a 65be
00000170: 4748 0ebe 7366 f03e 7318 4bbe 532b cabe
00000180: 2544 383e 70cd eebe a92f edbe cec7 cf3e
00000190: d12b 093f 16b2 ec3e e811 423f bd07 dc3e
000001a0: d205 53be ad8c 003e e353 193e 9461 653e
000001b0: 954e bebe 0faa f73e 51d6 393d 20d9 1c3e
000001c0: 5d97 023e 1e25 303e 5014 0a3f c45a 823e
000001d0: 6186 cfbd 09d2 0fbe f959 c43e fa36 5c3d
000001e0: 84b2 12be 817c 353d 1d2a a2be 2cf4 24be
000001f0: a709 803e 4a59 083e 6047 bbbe da70 d4bc
00000200: d0be 743e 1e22 f43e 0445 973f 855f c43e
00000210: 9130 e03d a5c6 873e f89c db3e a01d 16be
00000220: 271b b2be aada b13d b96b 0c3f b113 5dbe
00000230: f2b1 453e 8f42 cd3e 1023 303d 8e72 cb3c
00000240: 2f75 23be e9c4 1e3e a6f1 243e 02e2 6cbe
00000250: c849 303f 2d6b 893e 0232 2b3f 0157 313e
00000260: f3a5 0c3e d73c 993e 424d b1be e761 d13e
00000270: 660d cbbc 7ebd d2be ea93 8bbe 27b2 aebe
00000280: 1bcb aabe 6652 f4bd 9270 85bf ab46 6abe
00000290: c591 f4bd 816c c73e a485 42be 5fe7 a0bd
000002a0: 3bc2 be3e b125 b03e 05da 913f 4b61 ab3e
000002b0: 3b59 383f b687 d1be e13f dc3d 3df8 08bf
000002c0: 65f2 b93e 0daa 633d c62d 6e3f a8cb 033f
000002d0: 82f4 60bf e27a fd3d 5686 babe cc20 a6bd
000002e0: c425 2c3f bb6f c03e c1fe 183f 914f 083f
000002f0: fb49 90be 8697 c53e f5c1 6d3e f276 803e
00000300: 0d42 a2be 6e5f a03e 293c c73d ad33 673e
00000310: 75b4 98be a90e a93e ae14 9a3e b05c 843d
00000320: 2394 7dbe 4c77 27be 087e 183f 2c69 f63c
00000330: 3c1d b13e bf0b 4f3e 8d41 6b3f 320d ca3e
00000340: 6556 3bbe 3626 acbe 167e ef3d ef3c 953e
00000350: 001a f8be e510 8a3e 1483 71bf 993f cfbe
00000360: 2322 bf3e 76d2 c03c cc13 21bf 5544 b7be
00000370: 76ce babe 32c6 ba3e b087 8dbe 1af9 31be
00000380: d0b8 92be 7e25 febe 2925 d8be 4fcc 003e
00000390: 12a8 f5bd cc05 ebbd 8aed 9b3e fcd3 453d
000003a0: 3e0f 943c 379f 94be 089a 94be 384f d4bc
000003b0: d011 163e 42bb 793e 21ef 8a3e 47df ae3e
000003c0: 3af1 693e 0aed f43e aa30 e7be 6eec 92bd
000003d0: 87bd 7cbf 0136 dcbe 6eb8 c9be f9af cd3d
000003e0: 496a 2b3e 7c61 b8be 8328 c4bd 76f5 503e
000003f0: e1a0 593d 9aea 0bbe 3973 2abe 3b0c cc3c

shared.0.bias f4 [64]
-0.06668089 -0.017274193 0.77430147 -0.044679355 -0.06397996 -0.20106557 -0.112642854 0.9120733
0.41820818 0.94485116 0.42504323 0.7777666 0.5986547 -0.06958225 0.023837365 0.861141
0.43719456 0.55376476 0.84339666 0.5260693 0.4598816 -0.42678282 -0.36870438 0.2491752
0.13337179 -0.23088557 0.60844016 0.51516557 0.6027587 0.78948617 0.80762476 0.7778492
-0.026823718 0.72806835 0.80221295 0.041372847 0.52452946 -0.36541837 0.54446775 0.82776433
-0.032770034 0.52862006 -0.0036832239 -0.17837523 -0.1888286 -0.22264674 -0.03291959 0.46897206
0.48970824 0.5243961 0.850631 -0.008585 0.58503 -0.18207085 -0.3868332 0.7113477
-0.30318066 0.67840075 0.6645352 0.6544232 -0.2935751 -0.31143406 0.6015388 0.4623476
00000000: fe8f 88bd 9c82 8dbc 9f38 463f b301 37bd
00000010: ed07 83bd 22e4 4dbe 4cb1 e6bd a37d 693f
00000020: 621f d63e c4e1 713f 449f d93e b61b 473f
00000030: 6f41 193f 2481 8ebd 9446 c33c bd73 5c3f
00000040: f7d7 df3e 87c3 0d3f d8e8 573f 7aac 063f
00000050: 9a75 eb3e 4783 dabe d2c6 bcbe c927 7f3e
00000060: 9d92 083e 446d 6cbe bcc2 1b3f e4e1 033f
00000070: 654e 1a3f c41b 4a3f 7fc0 4e3f 2021 473f
00000080: 6abd dbbc b062 3a3f d45d 4d3f 9376 293d
00000090: 9047 063f 1e18 bbbe 3d62 0b3f 5de8 533f
000000a0: df39 06bd a553 073f 3e62 71bb ffa7 36be
000000b0: 495c 41be 82fd 63be b1d6 06bd 1b1d f03e
000000c0: 0abb fa3e d33e 063f f4c2 593f 1aa8 0cbc
000000d0: 87c4 153f c870 3abe 000f c6be e21a 363f
000000e0: 7f3a 9bbe acab 2d3f fb1e 2a3f 4788 273f
000000f0: 7a4f 96be 4974 9fbe 72fe 193f d3b8 ec3e

actor.0.weight f4 [64, 64]
-0.12423444 -0.09441894 -0.09856623 -0.0172562 0.088285 0.0027134663 0.041585237 0.056693904
-0.09782329 0.106305666 -0.12275791 -0.08792512 0.050688438 -0.06969908 0.11832261 -0.080812335
-0.058561243 0.051164072 0.039235085 -0.052669514 -0.11602026 -0.074352115 -0.006666965 0.07671066
-0.010461703 -0.074592926 -0.071682796 0.09413134 0.086286664 -0.063453294 0.006739353 -0.10313583
-0.042832594 -0.05971303 -0.07951602 -0.05779344 -0.018484183 0.10296467 -0.04717757 -0.068824455
0.12309681 0.067917414 -0.06263695 0.09726652 0.03709069 0.115930155 -0.03627132 -0.123541884
0.02447706 -0.0072982935 0.09587179 -0.11920361 0.03930773 0.11337471 0.092381164 -0.10361516
0.08028522 -0.099276386 -0.053419173 0.015177041 0.08718444 0.04016766 0.01010856 -0.022114675
0.114944555 0.08563818 0.07424855 0.10125511 -0.39908963 0.08647597 0.0013316767 0.13814406
-0.15727472 -0.037126973 0.07016318 0.09390224 0.21470743 -0.043584704 0.2415055 0.03616312
0.024259888 0.11989281 -0.041210487 -0.06346738 -0.05911012 0.06926403 -0.10607966 -0.11397801
-0.12192429 -0.0812738 -0.045653712 -0.03153658 0.16903107 -0.06902746 -0.05551664 -0.010213072
0.071253024 0.13891385 -0.116003186 -0.017147712 -0.046261843 -0.050130267 0.025314862 -0.14353208
-0.3451044 -0.09021404 0.40678555 -0.10968437 0.05378949 -0.10350332 0.120240554 0.1675954
0.023388244 -0.086486034 -0.04148487 0.3557685 0.15967333 -0.07334211 -0.1893765 -0.11223187
-0.045132305 0.09575351 0.010669531 0.20301063 -0.06333726 -0.02745622 0.15714434 -0.099935845
0.024188906 -0.10774319 0.10510232 -0.0133461505 0.046982557 -0.06478809 -0.017283157 -0.09504355
0.029184803 0.1061676 0.06902842 -0.055023897 0.0108306715 -0.07276972 -0.1148027 -0.051994544
0.029081585 -0.16579783 -0.0030355714 -0.030930959 -0.030981507 -0.01360625 0.013871222 0.00018117382
0.124519765 0.08480687 -0.055101175 -0.11332281 -0.17062789 -0.012412339 0.0053993915 0.04961825
0.11610485 -0.08838109 0.0038356995 -0.03996136 0.06923456 -0.10866897 -0.113433 -0.021536633
0.1374942 -0.1254693 -0.03698562 0.0076178974 0.078143924 0.034427606 -0.04432635 -0.058089193
-0.07299816 0.08698897 -0.12658599 0.0783577 -0.12168206 -0.056181256 0.05676218 -0.04035023
-0.08702414 -0.036445502 -0.11363168 -0.1273546 0.06850959 -0.0329358 -0.07416709 -0.12132377
0.0124299675 -0.09236899 -0.03150682 -0.09480412 0.060866058 -0.010360524 -0.07764728 -0.0174108
-0.12242715 0.04025419 -0.11034933 -0.00019338727 0.036456123 -0.033448353 0.07545769 0.031914756
-0.12371723 -0.10530479 -0.013711154 -0.051562667 -0.05556026 0.1113178 -0.077484116 -0.07820305
-0.07669866 -0.012627304 -0.10535063 0.025233611 0.012091696 -0.026026294 0.0031199902 -0.07926068
0.10451557 0.058343172 0.0871664 -0.023911506 0.031263724 0.117895395 0.089030504 -0.0683545
-0.07154867 -0.10208817 0.030656189 -0.026216432 -0.09171343 -0.03785859 -0.109862864 0.06391263
-0.09441525 -0.105818585 -0.08069204 -0.038824677 0.09730956 0.07063837 -0.024233058 -0.11825444
-0.0010536015 0.087424174 -0.02201359 -0.015632614 0.006908223 0.041221485 -0.09496221 -0.06185341
00000000: a06e febd b85e c1bd 17dd c9bd e05c 8dbc
00000010: c4ce b43d 69d4 313b 4855 2a3d de37 683d
00000020: 9457 c8bd c9b6 d93d 8068 fbbd 1612 b4bd
00000030: ae9e 4f3d 64be 8ebd 2053 f23d f080 a5bd
00000040: eadd 6fbd 6b91 513d f8b4 203d fdbb 57bd
00000050: 089c edbd ec45 98bd 8e76 dabb 7a1a 9d3d
00000060: 9067 2bbc 2dc4 98bd 6ece 92bd efc7 c03d
00000070: 10b7 b03d cdf3 81bd cad5 dc3b e138 d3bd
00000080: 3b71 2fbd a695 74bd 4cd9 a2bd d0b8 6cbd
00000090: 246c 97bc 24df d23d 453d 41bd d6f3 8cbd
000000a0: 2e1a fc3d 4918 8b3d cd47 80bd ab33 c73d
000000b0: 68ec 173d ca6c ed3d 3c91 14bd 8703 fdbd
000000c0: 1e84 c83c 8626 efbb 6e58 c43d 0621 f4bd
000000d0: 2401 213d 0031 e83d 5632 bd3d 2f34 d4bd
000000e0: 946c a43d 6b51 cbbd 10ce 5abd 20a9 783c
000000f0: c18d b23d d886 243d 609e 253c d629 b5bc
00000100: 0d68 eb3d 1263 af3d a00f 983d d75e cf3d
00000110: 7a55 ccbe 501a b13d a88b ae3a a375 0d3e
00000120: a00c 21be 7412 18bd b7b1 8f3d d14f c03d
00000130: 44dc 5b3e e085 32bd 384d 773e c81f 143d
00000140: acbc c63c 5d8a f53d 54cc 28bd 30fb 81bd
00000150: 741d 72bd 4dda 8d3d 4b40 d9bd 4e6d e9bd
00000160: 71b3 f9bd e172 a6bd 63ff 3abd 802c 01bd
00000170: 7b16 2d3e 455e 8dbd 6b65 63bd bb54 27bc
00000180: 1bed 913d 6f3f 0e3e 1493 edbd 5c79 8cbc
00000190: 0f7d 3dbd 6555 4dbd 1d61 cf3c 13fa 12be
000001a0: 86b1 b0be 23c2 b8bd 3246 d03e 33a2 e0bd
000001b0: 5e52 5c3d 8cf9 d3bd ae40 f63d 219e 2b3e
000001c0: b498 bf3c 971f b1bd 0aec 29bd 4a27 b63e
000001d0: 6881 233e 6334 96bd eaeb 41be d3d9 e5bd
000001e0: a7dc 38bd 6b1a c43d 42cf 2e3c 05e2 4f3e
000001f0: f7b6 81bd deeb e0bc 72ea 203e 2aab ccbd
00000200: d027 c63c 76a8 dcbd e33f d73d d0a9 5abc
00000210: c870 403d 9eaf 84bd 6895 8dbc 31a6 c2bd
00000220: f814 ef3c 666e d93d c65e 8d3d bd60 61bd
00000230: 2173 313c 4a08 95bd ae1d ebbd 3bf8 54bd
00000240: 813c ee3c e8c6 29be 70f0 46bb ec62 fdbc
00000250: eecc fdbc c0ec 5ebc 1f44 633c 7af9 3d39
00000260: 3804 ff3d 39af ad3d c5b1 61bd ca15 e8bd
00000270: 14b9 2ebe 205d 4bbc 61ed b03b 823c 4b3d
00000280: 61c8 ed3d 2501 b5bd 5c60 7b3b 86ae 23bd
00000290: d9ca 8d3d d68d debd 904f e8bd 986d b0bc
000002a0: 48cb 0c3e 067b 00be 3c7e 17bd 8e9f f93b
000002b0: ec09 a03d f603 0d3d 8c8f 35bd efee 6dbd
000002c0: 0f80 95bd 4627 b23d c29f 01be 007a a03d
000002d0: 7234 f9bd 511e 66bd 767f 683d 4846 25bd
000002e0: b639 b2bd e147 15bd bab7 e8bd 3f69 02be
000002f0: c24e 8c3d b0e7 06bd eae4 97bd 9978 f8bd
00000300: 10a7 4b3c f42b bdbd 4c0d 01bd aa28 c2bd
00000310: b04e 793d 30bf 29bc 8a05 9fbd 18a1 8ebc
00000320: 16bb fabd 94e1 243d d4fe e1bd 00c8 4ab9
00000330: 0453 153d 2401 09bd 9089 9a3d 0cb9 023d
00000340: 765f fdbd 0aaa d7bd c0a4 60bc 6033 53bd
00000350: 2893 63bd 96fa e33d feaf 9ebd ec28 a0bd
00000360: 3014 9dbd c0e2 4ebc 12c2 d7bd b8b6 ce3c
00000370: 401c 463c 1835 d5bc c078 4c3b 6c53 a2bd
00000380: 420c d63d 40f9 6e3d 4c84 b23d 10e2 c3bc
00000390: 640e 003d 2473 f13d a055 b63d 72fd 8bbd
000003a0: 1c88 92bd 9a13 d1bd b022 fb3c d8c3 d6bc
000003b0: 40d4 bbbd 9c11 1bbd c8ff e0bd a0e4 823d
000003c0: c85c c1bd 6ab7 d8bd de41 a5bd a006 1fbd
000003d0: 3c4a c73d daaa 903d 6884 c6bc 622f f2bd
000003e0: 0019 8aba 720b b33d d855 b4bc f80f 80bc
000003f0: 605e e23b dcd7 283d 8c7b c2bd 005a 7dbd

actor.0.bias f4 [64]
-0.07199593 0.07170281 -0.14215507 -0.08404951 0.0869049 -0.0022744166 0.08015244 0.04972319
-0.011243941 0.11760233 0.06718776 -0.14216219 0.0040160655 -0.09889461 0.047657024 0.040896915
0.04678304 -0.124289006 -0.11898116 0.09873124 0.03679686 -0.135303 0.03167877 -0.049154043
-0.05410345 -0.051141817 -0.049370993 -0.013671777 -0.098588586 -0.014675152 0.046604037 -0.111221746
0.055640213 -0.037653618 0.025423704 -0.02715312 0.12079096 0.04298158 0.04534542 0.032085806
0.06339001 0.10902346 -0.121849805 -0.079416685 -0.13501951 0.009530132 0.08165446 0.040001377
0.079193726 0.06739292 -0.030520305 -0.0020389599 0.03320964 -0.011814096 0.09328321 -0.008831425
0.008818895 0.07745978 0.08489724 0.1349006 0.07554408 0.06360685 -0.10640617 0.12267327
00000000: 9a72 93bd ecd8 923d 1991 11be 2622 acbd
00000010: 32fb b13d 610e 15bb f626 a43d 8baa 4b3d
00000020: 8238 38bc 7ed9 f03d bc99 893d f792 11be
00000030: 3399 833b 4289 cabd 0334 433d 8683 273d
00000040: 939f 3f3d 3c8b febd 65ac f3bd 9b33 ca3d
00000050: 4eb8 163d df8c 0abe 99c1 013d c055 49bd
00000060: 949b 5dbd 157a 51bd 3d39 4abd 97ff 5fbc
00000070: d0e8 c9bd 0c70 70bc e0e3 3e3d 3ac8 e3bd
00000080: fee6 633d ae3a 1abd 5f45 d03c 3870 debc
00000090: 4061 f73d 740d 303d 1ebc 393d 686c 033d
000000a0: 9fd2 813d b147 df3d 648c f9bd 37a5 a2bd
000000b0: 8e42 0abe 4524 1c3c 743a a73d 7cd8 233d
000000c0: 5230 a23d 4d05 8a3d b805 fabc 12a0 05bb
000000d0: d506 083d e98f 41bc 450b bf3d aeb1 10bc
000000e0: 207d 103c 3ca3 9e3d 9bde ad3d 6223 0a3e
000000f0: dbb6 9a3d 4f44 823d 7aeb d9bd 203c fb3d

actor.2.weight f4 [2, 64]
-0.0729621 -0.14958195 -0.0594482 0.05278486 -0.101423025 0.0741445 -0.04248715 -0.058356497
0.10042495 -0.113597706 -0.034450375 0.080861025 0.08064463 0.03140166 0.14107063 0.053592566
-0.081451505 -0.13722701 -0.08822613 0.080718376 0.03068426 0.09882316 -0.14296296 -0.04206635
0.12047206 0.08345329 0.016265005 -0.018815508 -0.01639828 -0.071132146 -0.017444432 -0.039725438
0.1915324 0.006007256 0.046467878 -0.14723784 -0.18050961 -0.09669487 0.013539572 0.12216163
-0.25745952 -0.17718805 0.026613042 -0.17878114 -0.056858674 -0.06390281 -0.1917941 0.16447322
-0.11851191 0.24252626 0.24571462 -0.080170505 -0.13918722 0.108577885 -0.022737205 -0.23176827
0.11052574 -0.2107883 0.11287182 0.31269944 -0.0056963544 -0.14229923 -0.018353567 0.1775064
0.091652535 0.20655762 0.039524682 -0.019426495 0.122033216 0.05478567 -0.07296877 0.13063593
0.063732795 0.26736793 0.1043193 -0.06644709 -0.0024505947 -0.07311666 -0.12060963 -0.20493431
-0.015440737 -0.09982056 0.06109317 0.07852604 0.054352574 0.10008451 0.06958006 0.05515054
-0.061337292 0.038449388 0.1392347 -0.21209262 0.02406931 0.14152555 0.007303104 0.045325235
-0.107515566 0.049753577 0.100673355 0.16469719 0.042248946 0.14715311 0.0062599583 0.09836112
0.14917809 0.200183 0.10517044 0.09076655 -0.046195548 0.04108286 0.014245792 -0.09779556
0.14769532 -0.2299601 -0.07134389 0.026490083 0.10792177 0.037261564 0.1717781 0.09673761
0.089410484 0.20232898 -0.09509216 -0.24006113 -0.20716116 0.14252067 0.01901555 -0.25248316
00000000: 276d 95bd 032c 19be f57f 73bd f034 583d
00000010: e0b6 cfbd 12d9 973d 0107 2ebd 3907 6fbd
00000020: 99ab cd3d eaa5 e8bd d61b 0dbd 779a a53d
00000030: 0329 a53d 079f 003d d274 103e e183 5b3d
00000040: 0cd0 a6bd 3d85 0cbe e7af b4bd ad4f a53d
00000050: 8f5d fb3c cc63 ca3d e264 12be c44d 2cbd
00000060: 0eba f63d 8fe9 aa3d 303e 853c fb22 9abc
00000070: b055 86bc bbad 91bd a0e7 8ebc 24b7 22bd
00000080: 1221 443e 84d8 c43b 1a55 3e3d 84c5 16be
00000090: 83d7 38be f607 c6bd 15d5 5d3c e02f fa3d
000000a0: bcd1 83be c970 35be 9803 da3c 6712 37be
000000b0: a4e4 68bd 7adf 82bd ac65 44be ab6b 283e
000000c0: 5fb6 f2bd ce58 783e 9d9c 7b3e 6f30 a4bd
000000d0: 1887 0ebe 155e de3d 6043 babc a954 6dbe
000000e0: 525b e23d e3d8 57be 5729 e73d 241a a03e
000000f0: 7ca8 babb e4b6 11be 385a 96bc 3dc4 353e
00000100: 53b4 bb3d d783 533e a2e4 213d 5024 9fbc
00000110: 8dec f93d f066 603d a770 95bd 6dc5 053e
00000120: 5786 823d 73e4 883e 5ba5 d53d 6915 88bd
00000130: 289a 20bb 30be 95bd 2f02 f7bd 4dda 51be
00000140: 25fb 7cbc b96e ccbd d53c 7a3d 43d2 a03d
00000150: cea0 5e3d 1cf9 cc3d fe7f 8e3d 88e5 613d
00000160: d03c 7bbd 1b7d 1d3d 8b93 0e3e cf2e 59be
00000170: 002d c53c 13ec 103e e04e ef3b f4a6 393d
00000180: 1f31 dcbd 68ca 4b3d d52d ce3d 61a6 283e
00000190: 3b0d 2d3d 4eaf 163e 5620 cd3b 8e71 c93d
000001a0: 24c2 183e c6fc 4c3e 9a63 d73d d0e3 b93d
000001b0: 8b37 3dbd 8046 283d 2f67 693c 0a49 c8bd
000001c0: 713d 173e a97a 6bbe bf1c 92bd bb01 d93c
000001d0: 1706 dd3d 959f 183d 99e6 2f3e 5e1e c63d
000001e0: d81c b73d 542f 4f3e aebf c2bd 96d2 75be
000001f0: 0e22 54be f0f0 113e 80c6 9b3c 7945 81be

actor.2.bias f4 [2]
0.056227196 -0.09234215
00000000: 7d4e 663d e21d bdbd

critic.0.weight f4 [64, 64]
-0.11178854 -0.104598805 0.27624118 0.16641203 -0.42982802 0.032361127 -0.02195932 0.22693303
0.05259946 0.24870625 0.21555875 0.3316504 0.37718847 -0.2669977 0.029502667 0.30029863
0.07392901 0.25241172 0.21956882 0.12582378 0.35728204 -0.13805015 -0.28171575 0.124213964
0.032456715 -0.4465308 0.27657276 0.2809532 0.41947484 0.19454429 0.35604733 0.3787649
-0.37876976 0.3195073 0.3302874 -0.061161153 0.25548193 -0.33801603 0.25358957 0.28895617
-0.47296193 0.095268995 -0.52432543 -0.44044903 -0.2818628 -0.5010826 -0.30301452 0.1991312
0.3270794 0.21653405 0.22352645 -0.21879523 0.20077871 -0.12022742 -0.3425564 0.16590314
-0.2721386 0.30345967 0.34318098 0.41633695 -0.20353767 -0.43401438 0.31475785 0.27543575
-0.26228818 -0.13343953 0.16204561 -0.0330656 -0.6499769 -0.07597826 -0.19724207 0.3657119
0.04972346 0.3248065 0.08889211 0.27896473 0.26494423 -0.18392996 0.09159999 0.22503097
0.25076374 0.33000335 0.33716938 0.06718744 0.16179202 -0.1860173 -0.4009313 0.004073242
0.060775828 -0.25165606 0.1933334 0.34542653 0.34336218 0.1731534 0.35596022 0.32161885
-0.33326277 0.28741315 0.115476236 0.08575144 0.13647377 -0.3508813 0.10841034 0.28208628
-0.60355884 0.06286143 -0.43852037 -0.41215593 -0.39381114 -0.32625464 -0.36896616 0.32229432
0.15581174 0.15980616 0.25765657 -0.39049718 0.22851318 -0.31041315 -0.28159806 0.09026824
-0.33351177 0.27522507 0.3093997 0.12516576 -0.19808996 -0.2750739 0.2697933 0.22194058
0.37487674 0.33882287 -0.14811313 -0.04408195 0.3555233 -0.09781692 -0.03317774 -0.07420483
-0.31640145 -0.0770811 0.039025452 -0.08590229 -0.025349692 0.0059765866 0.11270655 0.066470884
-0.20863518 0.038209435 -0.0814993 -0.2095158 0.046648085 -0.018203368 0.10144358 -0.0075538503
-0.08458359 0.08531672 0.059267182 -0.0012190721 -0.009418622 0.024064556 0.004279121 -0.18588167
0.3339031 0.033794653 -0.054152604 -0.0072315168 0.041926008 0.2886852 -0.006106828 -0.06279578
0.39547852 0.0015786336 0.44268176 0.021684319 0.3338543 0.5448439 0.1454835 0.069006935
0.20234029 0.16612503 0.08660801 0.28017527 0.064634964 0.3213529 0.033042468 0.10773437
0.37161937 0.09195721 0.050636426 -0.060412996 -0.073718496 0.4622451 -0.06109036 -0.090478085
-0.13851257 -0.317818 0.2659309 -0.013470527 -0.5475417 0.017245762 -0.11068797 0.18145128
0.15647997 0.3468634 0.062444758 0.21492639 0.36555883 -0.21303117 0.108476155 0.37283045
0.05588444 0.19871655 0.3766863 0.074145116 0.10962027 -0.19073665 -0.39189404 0.042332202
0.10263572 -0.44466737 0.3270384 0.18663748 0.24437189 0.17863439 0.18093197 0.3485446
-0.4410181 0.28357947 0.15936601 0.012284354 0.3148292 -0.36648914 0.260122 0.10524069
-0.6139111 0.22501235 -0.54547894 -0.451902 -0.44230014 -0.43472362 -0.31105694 0.30372426
0.30558905 0.34596655 0.29862034 -0.26964948 0.25020307 -0.1365508 -0.28102013 0.27778825
-0.13528845 0.3659973 0.33431327 0.2510887 -0.21239263 -0.45997065 0.19788077 0.41891968
00000000: 64f1 e4bd e637 d6bd 7c6f 8d3e ea67 2a3e
00000010: 6b12 dcbe 1a8d 043d 08e4 b3bc 2261 683e
00000020: 8872 573d daac 7e3e 6fbb 5c3e 15ce a93e
00000030: d91e c13e ecb3 88be 94af f13c bec0 993e
00000040: 1868 973d 1c3c 813e a6d6 603e f3d7 003e
00000050: aced b63e 055d 0dbe 0c3d 90be e463 fe3d
00000060: 55f1 043d af9f e4be f29a 8d3e 19d9 8f3e
00000070: 68c5 d63e 9e36 473e d64b b63e 79ed c13e
00000080: 1cee c1be 7696 a33e 6e1b a93e 1e84 7abd
00000090: 87ce 823e 7010 adbe 7ed6 813e 10f2 933e
000000a0: 1128 f2be 641c c33d 313a 06bf 8982 e1be
000000b0: 5250 90be f346 00bf b824 9bbe 0de9 4b3e
000000c0: f376 a73e 1abb 5d3e 1ee4 643e db0b 60be
000000d0: ef98 4d3e cb39 f6bd 8d63 afbe 83e2 293e
000000e0: c055 8bbe 115f 9b3e 6bb5 af3e 1e2a d53e
000000f0: 2e6c 50be 2237 debe f127 a13e ea05 8d3e
00000100: a34a 86be 5fa4 08be 49ef 253e cb6f 07bd
00000110: e364 26bf 7d9a 9bbd d3f9 49be 973e bb3e
00000120: d4aa 4b3d 0a4d a63e 110d b63d 77d4 8e3e
00000130: c5a6 873e 2358 3cbe c798 bb3d 856e 663e
00000140: 1b64 803e 33f6 a83e 77a1 ac3e 9299 893d
00000150: cfac 253e 527b 3ebe de46 cdbe d578 853b
00000160: 13f0 783d 10d9 80be 31f9 453e bfdb b03e
00000170: 2bcd af3e 204f 313e 6b40 b63e 3aab a43e
00000180: 6ba1 aabe d127 933e ce7e ec3d 739e af3d
00000190: c8bf 0b3e b7a6 b3be 3e06 de3d 9d6d 903e
000001a0: d582 1abf 7ebd 803d be85 e0be 1a06 d3be
000001b0: 9da1 c9be d90a a7be 22e9 bcbe c303 a53e
000001c0: 1d8d 1f3e 3aa4 233e 90eb 833e 3fef c7be
000001d0: 5cff 693e 79ee 9ebe 9f2d 90be 8ede b83d
000001e0: 0ec2 aabe 4dea 8c3e a369 9e3e 742b 003e
000001f0: 18d8 4abe 7cd6 8cbe 5922 8a3e 6444 633e
00000200: d8ef bf3e 317a ad3e f8aa 17be 468f 34bd
00000210: 2607 b63e 3d54 c8bd 62e5 07bd b4f8 97bd
00000220: 5fff a1be b2dc 9dbd 27d9 1f3d 8aed afbd
00000230: 28aa cfbc 3ed7 c33b b1d2 e63d e321 883d
00000240: 76a4 55be 7f81 1c3d 1be9 a6bd 4f8b 56be
00000250: 1012 3f3d 3b1f 95bc a7c1 cf3d 4a86 f7bb
00000260: 293a adbd 88ba ae3d 25c2 723d 46c9 9fba
00000270: 9050 1abc 0823 c53c de37 8c3b c457 3ebe
00000280: 59f5 aa3e 436c 0a3d 1fcf 5dbd 5cf6 ecbb
00000290: 9bba 2b3d 8cce 933e c91b c8bb 139b 80bd
000002a0: 297c ca3e 27ea ce3a 2fa7 e23e 50a3 b13c
000002b0: f3ee aa3e e47a 0b3f a0f9 143e 8253 8d3d
000002c0: 4b32 4f3e ae1c 2a3e 8a5f b13d 2273 8f3e
000002d0: 565f 843d 5e88 a43e 8a57 073d d6a3 dc3d
000002e0: e544 be3e 1054 bc3d 2468 4f3d 9e73 77bd
000002f0: b9f9 96bd 64ab ec3e e339 7abd 934c b9bd
00000300: 3dd6 0dbe 0ab9 a2be 1828 883e 7cb3 5cbc
00000310: b12b 0cbf fc46 8d3c 60b0 e2bd 5dce 393e
00000320: 493c 203e 1498 b13e 13c6 7f3d aa15 5c3e
00000330: 872a bb3e d824 5abe bf28 de3d a2e3 be3e
00000340: 15e7 643d 5a7c 4b3e 07dd c03e 65d9 973d
00000350: 9880 e03d 7850 43be 56a6 c8be 8864 2d3d
00000360: ad32 d23d 71ab e3be 9471 a73e e51d 3f3e
00000370: a03c 7a3e efeb 363e 3b46 393e 7074 b23e
00000380: 20cd e1be 5431 913e d830 233e 5144 493c
00000390: 4b31 a13e 77a4 bbbe b62e 853e 6e88 d73d
000003a0: 4729 1dbf a369 663e 82a4 0bbf b35f e7be
000003b0: 2a75 e2be 1894 debe db42 9fbe bf81 9b3e
000003c0: 2b76 9c3e 8722 b13e c4e4 983e 7f0f 8abe
000003d0: 9e1a 803e f9d3 0bbe dfe1 8fbe 433a 8e3e
000003e0: 0e89 0abe 0064 bb3e 1c2b ab3e b38e 803e
000003f0: 747d 59be 4681 ebbe 42a1 4a3e a47c d63e

critic.0.bias f4 [64]
0.26784068 0.31029817 -0.09615512 0.2944162 0.017962579 0.3713848 0.3809233 0.35216373
0.29866317 0.27490076 -0.18391244 0.30830392 -0.097772464 0.03790993 -0.11362711 -0.052471083
-0.089503706 0.40041044 0.056195468 -0.0029226572 -0.08700687 0.03925012 -0.09478796 -0.06752449
-0.0012187705 -0.07120603 0.0055643027 0.36401707 0.03376142 -0.10483187 -0.060798712 0.23222111
-0.16364075 -0.11529742 -0.03229797 -0.070382655 -0.02481486 0.47587386 0.2503951 -0.091595106
-0.1033954 0.21200374 -0.1817997 0.27511403 0.41227978 0.13377686 -0.117309235 0.38940057
0.3647439 0.28472117 0.0821763 0.20627292 0.39616302 0.14085259 0.2826328 -0.025543079
0.26291737 -0.045892633 0.25569454 -0.09919158 0.12016698 0.050865754 0.34098685 0.26613554
00000000: 6a22 893e 67df 9e3e faec c4bd b8bd 963e
00000010: 4226 933c 2626 be3e 6108 c33e ce4e b43e
00000020: 61ea 983e cbbf 8c3e 8b53 3cbe 03da 9d3e
00000030: ee3c c8bd 7147 1b3d 55b5 e8bd ebeb 56bd
00000040: b84d b7bd 9902 cd3e 382d 663d 0d8a 3fbb
00000050: a830 b2bd bcc4 203d 3120 c2bd 484a 8abd
00000060: 27bf 9fba 78d4 91bd c154 b63b 7260 ba3e
00000070: 6a49 0a3d 17b2 d6bd 1208 79bd 5fcb 6d3e
00000080: 7191 27be 0e21 ecbd e04a 04bd c824 90bd
00000090: 8948 cbbc bda5 f33e c933 803e 3796 bbbd
000000a0: f8c0 d3bd 8217 593e b329 3abe bfdb 8c3e
000000b0: 5616 d33e cdfc 083e d33f f0bd 835f c73e
000000c0: b6bf ba3e f9c6 913e 0c4c a83d 3539 533e
000000d0: e1d5 ca3e a93b 103e 3fb5 903e b83f d1bc
000000e0: 1b9d 863e eaf9 3bbd 65ea 823e f524 cbbd
000000f0: 1b1a f63d 9c58 503d d495 ae3e eb42 883e

critic.2.weight f4 [1, 64]
0.5174209 0.5081973 -0.39662492 0.46514213 -0.50905764 0.45992416 0.43885168 0.4620329
0.38759735 0.49722514 -0.43643183 0.42848313 -0.12143108 -0.5454058 0.09890101 -0.41009212
-0.27069595 0.43232033 -0.0055645574 -0.5011193 -0.033443905 -0.51188475 -0.07918647 -0.35894024
-0.42283764 -0.25662383 -0.46305934 0.4017018 -0.25819266 -0.5464597 0.10397845 0.5078998
-0.4752805 -0.5122459 -0.0424698 -0.03544284 0.034676366 0.40869156 0.503041 -0.28628018
-0.4388535 0.44087678 -0.48911685 0.51768345 0.40882057 0.5058746 -0.55101144 0.4052502
0.4360128 0.43744195 -0.3016324 0.4418575 0.45004627 0.50344783 0.4876537 -0.10601138
0.57747847 -0.25869578 0.500932 -0.44675285 0.038776882 -0.020749949 0.44683206 0.44350776
00000000: b275 043f 3819 023f 6c12 cbbe 1c27 ee3e
00000010: 9a51 02bf 2e7b eb3e 2bb1 e03e 948f ec3e
00000020: 2973 c63e 4b94 fe3e fe73 dfbe 2462 db3e
00000030: dcb0 f8bd b79f 0bbf 9d8c ca3d 98f7 d1be
00000040: a998 8abe 1759 dd3e e456 b6bb 5b49 00bf
00000050: 7afc 08bd e10a 03bf 842c a2bd 04c7 b7be
00000060: 2d7e d8be 3364 83be 1d16 edbe dcab cd3e
00000070: d431 84be c8e4 0bbf a7f2 d43d b905 023f
00000080: f757 f3be 8c22 03bf d0f4 2dbd 832c 11bd
00000090: ce08 0e3d 0540 d13e 4cc7 003f 5193 92be
000000a0: 68b1 e0be 9aba e13e 866d fabe e786 043f
000000b0: ee50 d13e ff80 013f 160f 0dbf f47c cf3e
000000c0: 123d df3e 64f8 df3e 906f 9abe 253b e23e
000000d0: 776c e63e f5e1 003f bfad f93e 7f1c d9bd
000000e0: a1d5 133f c673 84be 143d 003f cabc e4be
000000f0: 82d4 1e3d ccfb a9bc 2cc7 e43e 7313 e33e
