cartpole_reinforce_policy.pth (torch, 3132 bytes, 6 tensors)

network.0.weight f4 [4, 4]
0.12779553 0.40707752 2.3590696 1.1569523 0.6331734 -0.111013375 0.093714885 -0.42167717
-0.00883946 -0.041146968 -0.27207252 0.019379478 0.1281192 0.32718554 2.2480934 0.8197361
00000000: d5dc 023e 776c d03e fffa 1640 0317 943f
00000010: a717 223f fb5a e3bd 97ed bf3d 12e6 d7be
00000020: 62d3 10bc b989 28bd 174d 8bbe b6c1 9e3c
00000030: ae31 033e dd84 a73e c3e0 0f40 3ada 513f

network.0.bias f4 [4]
0.49377286 -0.45538726 -0.2526544 0.368432
00000000: cccf fc3e 8528 e9be eb5b 81be 1ea3 bc3e

network.2.weight f4 [4, 4]
0.216171 0.20358078 -0.58199584 -0.30327415 -0.40590498 0.37546423 0.2666942 0.09543501
1.5860176 -0.70755273 -0.38767636 1.3670939 -0.20227247 -0.46776646 0.0055607557 0.249354
00000000: ee5b 5d3e 7b77 503e aefd 14bf c046 9bbe
00000010: c7d2 cfbe d93c c03e 248c 883e 6e73 c33d
00000020: a002 cb3f 2d22 35bf 847d c6be effc ae3f
00000030: 8420 4fbe 167f efbe 0037 b63b a856 7f3e

network.2.bias f4 [4]
-0.52537435 0.20195493 -0.012008101 -0.43059272
00000000: ef7e 06bf 46cd 4e3e a0bd 44bc a676 dcbe

network.4.weight f4 [2, 4]
-0.29439372 0.20470735 -0.71778625 -0.1539557 -0.4150908 -0.17228474 1.2763095 -0.38698196
00000000: c6ba 96be ce9e 513e d7c0 37bf 90a6 1dbe
00000010: c886 d4be 696b 30be 1c5e a33f 8022 c6be

network.4.bias f4 [2]
0.925175 -0.7864991
00000000: 45d8 6c3f 0158 49bf
