cartpole_ppo_centered_policy.pth (torch, 39518 bytes, 9 tensors)

shared.0.weight f4 [64, 4]
-0.011881866 0.14252639 -0.3892881 -0.074137144 0.68330145 0.17793553 1.1402494 0.4202389
-0.41990516 -0.44743085 -1.1314585 -0.2552152 0.16063614 0.21246915 0.3272563 0.16118944
0.3606531 -0.14882399 -0.3050154 -0.056742627 -0.33824548 -0.27186444 -0.0064330786 0.19827804
-0.037549756 -0.34445408 -0.49929136 -0.4337997 0.0865207 -0.50325114 -0.42038804 -0.3723641
0.25482106 -0.1488497 0.20272498 -0.29110497 -0.6790725 -0.1645113 -0.26931646 -0.47809038
-0.2726775 0.0009998551 0.4537125 0.28027433 -0.200154 -0.16408971 -0.26874498 0.19784825
0.6308095 0.034545183 -0.28580657 -0.27325466 0.6021137 0.112344235 0.50623095 0.046129294
-0.059190404 -0.3993261 -0.03215857 0.22549953 -0.44137913 0.3890488 0.3963591 0.052966163
-0.27140853 0.14001435 0.28750443 -0.03210555 0.11236984 0.4668923 0.8247164 0.48919392
-0.14028767 0.46064356 -0.7262215 -0.47274852 -0.18929064 -0.08567371 -0.43903932 -0.07291999
-0.293455 -0.26075092 -0.08054668 -0.2656641 0.21686643 0.08016158 -0.37851912 -0.0066820127
0.32663545 -0.35410646 -0.020960972 -0.0588683 -0.6524296 -0.3809615 -0.20391585 0.110900775
0.056344446 0.124740556 -0.026881801 -0.15603317 0.057940934 0.11632332 -0.52005494 0.40231836
0.0023581684 0.47627252 0.0020220242 0.32749036 0.3086237 -0.3945785 0.26867086 -0.38045377
-0.6792937 -0.0125615755 -0.11671046 -0.4682136 0.24412207 -0.35369343 0.39127707 0.039402485
-0.14381488 -0.355805 -0.10723583 0.115724556 0.06193945 0.62490505 0.6455961 0.5698542
0.15249912 0.34040478 0.45208132 0.031209834 -0.29094276 -0.30633354 -0.010728389 0.25945517
-0.18493496 -0.15969588 -0.11482791 0.01149229 -0.22629482 -0.07334225 0.026819114 0.057404548
-0.014371558 -0.13292356 -0.28752396 -0.28906846 0.6556531 0.011059369 0.27929246 0.36320385
-0.26458853 0.07592611 -0.10286107 0.3002858 0.20725118 -0.035019077 0.2593533 -0.22672741
-0.51747674 0.2155679 0.25325814 0.47744814 -0.27856636 -0.5590095 0.32172838 0.25338435
-0.15958695 0.2519286 0.22189239 0.08687034 -0.38537878 0.29127416 -0.12297567 -0.32266536
-0.23423797 -0.6942821 -0.45179495 -0.050603013 -0.40117675 0.069696106 -0.41437012 -0.03627082
-0.72941875 0.20049804 -1.2646307 -0.34498215 -0.054148152 -0.3720586 -0.33179662 0.047764793
0.1686766 0.35338348 0.80073786 0.36429957 0.14430697 0.19821163 0.21849339 -0.5277227
0.014415974 -0.18169609 0.82153916 0.47708455 -0.21362416 -0.070765935 -0.012734173 -0.13464363
-0.32983398 0.47800228 -0.32117563 0.31127074 -0.15764926 -0.008820557 -0.4544357 0.31323385
0.7901643 0.44809932 -0.13779551 -0.09742544 -0.6829586 -0.40167886 -0.62254393 -0.401911
-0.55226666 -0.4974775 -0.09451723 0.18075348 0.32051003 -0.24451399 -0.1536851 -0.22185124
-0.5182171 -0.36466065 -1.321169 -0.47881448 0.3720713 -0.4353431 0.1201191 -0.14940707
-0.5142544 -0.59954375 -0.31867927 -0.39228794 0.009184045 -0.40936306 0.3628821 -0.02101989
-0.42672008 0.206172 0.21864712 -0.1993995 0.83551496 -0.28716028 -0.11455225 -0.1537388
00000000: 28ac 42bc 70f2 113e c550 c7be 37d5 97bd
00000010: d8ec 2e3f bb34 363e b1f3 913f 8e29 d73e
00000020: cffd d6be a815 e5be a2d3 90bf 91ab 82be
00000030: cd7d 243e 8391 593e 238e a73e d80e 253e
00000040: 86a7 b83e 5165 18be fa2a 9cbe f56a 68bd
00000050: 832e adbe d131 8bbe 93cc d2bb 6609 4b3e
00000060: c6cd 19bd 495c b0be 1ea3 ffbe ff1a debe
00000070: c431 b13d 11d5 00bf 1a3d d7be 82a6 bebe
00000080: e877 823e 0e6c 18be 2397 4f3e b60b 95be
00000090: b2d7 2dbf a675 28be d9e3 89be 43c8 f4be
000000a0: 639c 8bbe 920d 833a 014d e83e 1e80 8f3e
000000b0: 2cf5 4cbe 2207 28be f198 89be bb98 4a3e
000000c0: bb7c 213f 407f 0d3d 3d55 92be 09e8 8bbe
000000d0: 2024 1a3f bc14 e63d 5a98 013f 12f2 3c3d
000000e0: a371 72bd 7874 ccbe b4b8 03bd 59e9 663e
000000f0: 72fc e1be 6831 c73e 94ef ca3e 0cf3 583d
00000100: 0ff6 8abe ec5f 0f3e c833 933e 1c81 03bd
00000110: 2922 e63d 820c ef3e 9d20 533f a077 fa3e
00000120: 92a7 0fbe 79d9 eb3e a7e9 39bf 180c f2be
00000130: 68d5 41be b375 afbd c3c9 e0be 1357 95bd
00000140: bc3f 96be 2581 85be a8f5 a4bd 2005 88be
00000150: 3c12 5e3e c12b a43d 42cd c1be c9f4 dabb
00000160: c33c a73e 714d b5be 58b6 abbc e31f 71bd
00000170: a005 27bf 630d c3be 51cf 50be f21f e33d
00000180: 6fc9 663d fa77 ff3d 3937 dcbc 29c7 1fbe
00000190: 7953 6d3d ec3a ee3d 5222 05bf acfc cd3e
000001a0: 808b 1a3b fed9 f33e f083 043b d1ac a73e
000001b0: ed03 9e3e 3106 cabe 3a8f 893e d6ca c2be
000001c0: 31e6 2dbf 11cf 4dbc e505 efbd b1b9 efbe
000001d0: 23fb 793e 4e17 b5be 7855 c83e 8064 213d
000001e0: 3544 13be 132c b6be 759e dbbd ff00 ed3d
000001f0: 39b4 7d3d c7f9 1f3f c945 253f f7e1 113f
00000200: bb28 1c3e 8949 ae3e 3477 e73e c4ab ff3c
00000210: 73f6 94be c0d7 9cbe 20c6 2fbc 4fd7 843e
00000220: 975f 3dbe 5187 23be e52a ebbd 284a 3c3c
00000230: d4b9 67be 7634 96bd c2b3 db3c 0821 6b3d
00000240: af76 6bbc 1d1d 08be 5736 93be c800 94be
00000250: e2d8 273f 5b32 353c 6cff 8e3e dbf5 b93e
00000260: 2678 87be 267f 9b3d d3a8 d2bd 0fbf 993e
00000270: a739 543e 2a70 0fbd f5c9 843e 3b2b 68be
00000280: 5b79 04bf d5bd 5c3e 0dab 813e 1574 f43e
00000290: 40a0 8ebe 3f1b 0fbf 95b9 a43e 98bb 813e
000002a0: c36a 23be c9fc 803e c237 633e 14e9 b13d
000002b0: 5e50 c5be e321 953e abda fbbd 6534 a5be
000002c0: 14dc 6fbe 79bc 31bf ab51 e7be 1b45 4fbd
000002d0: 0a67 cdbe d5bc 8e3d 5228 d4be b690 14bd
000002e0: 30bb 3abf 5c4f 4d3e 6bdf a1bf 80a1 b0be
000002f0: 74ca 5dbd 777e bebe 3fe1 a9be 04a5 433d
00000300: 8fb9 2c3e aeee b43e 28fd 4c3f 7985 ba3e
00000310: 35c5 133e fdf7 4a3e bbbc 5f3e d618 07bf
00000320: fa30 6c3c 8a0e 3abe 6450 523f 6d44 f43e
00000330: 4bc0 5abe bbed 90bd fea2 50bc 05e0 09be
00000340: 00e0 a8be b7bc f43e 2271 a4be e15e 9f3e
00000350: cf6e 21be 1984 10bc ccab e8be 3060 a03e
00000360: 3548 4a3f 466d e53e 441a 0dbe fd86 c7bd
00000370: 60d6 2ebf daa8 cdbe 0a5f 1fbf 47c7 cdbe
00000380: 5961 0dbf 5fb5 febe 4092 c1bd 7117 393e
00000390: e419 a43e e061 7abe a05f 1dbe f92c 63be
000003a0: e0a9 04bf cdb4 babe 111c a9bf 2c27 f5be
000003b0: 2180 be3e 4ae5 debe 0101 f63d 2bfe 18be
000003c0: 2da6 03bf b37b 19bf ee29 a3be f7d9 c8be
000003d0: ad78 163c 0998 d1be afcb b93e e831 acbc
000003e0: 0e7b dabe c11e 533e 08e5 5f3e 622f 4cbe
000003f0: 4fe4 553f ac06 93be 5f9a eabd b46d 1dbe

shared.0.bias f4 [64]
0.55772793 -0.20497157 -0.0014873728 0.41703427 0.8041228 -0.336001 0.825105 -0.00081138196
0.7606606 -0.22137989 0.54078186 0.80195004 -0.16804865 -0.12117403 0.8370418 0.8083002
0.5402737 0.015763609 -0.4255024 0.655106 0.8338513 0.5741423 0.54928577 -0.20445034
0.55391204 0.43922737 0.7118642 0.47440174 -0.3351308 0.6787889 0.5186049 -0.010154892
0.77093786 -0.2292522 0.7480605 0.6930214 0.7003013 -0.35451135 0.5979925 0.5290021
-0.22408819 -0.24305943 0.47020084 -0.35663646 -0.23865218 0.9067065 -0.17253476 0.75328344
-0.003269154 -0.44590545 -0.14445643 0.6708554 0.5411316 0.5451088 -0.18328978 -0.11385523
-0.36522314 0.5936471 0.04879119 0.448151 -0.16691573 0.80651724 0.8345489 -0.009232394
00000000: 42c7 0e3f 11e4 51be f3f3 c2ba 8485 d53e
00000010: feda 4d3f 5308 acbe 153a 533f ecb2 54ba
00000020: a7ba 423f 69b1 62be ae70 0a3f 994c 4d3f
00000030: f214 2cbe 172a f8bd 5f48 563f c3ec 4e3f
00000040: 614f 0a3f af22 813c 73db d9be 07b5 273f
00000050: 4777 553f fdfa 123f fe9d 0c3f 6e5b 51be
00000060: 2ecd 0d3f 69e2 e03e bb3c 363f c9e4 f23e
00000070: 4496 abbe 1cc5 2d3f 4ac3 043f b460 26bc
00000080: 2f5c 453f 17c1 6abe e580 3f3f da69 313f
00000090: f246 333f 8382 b5be 0916 193f ae6c 073f
000000a0: 6077 65be 92e4 78be 2abe f03e 0e99 b6be
000000b0: 3d61 74be eb1d 683f f4ac 30be 2fd7 403f
000000c0: 4e3f 56bb b84d e4be 63ec 13be 2ebd 2b3f
000000d0: 9a87 0a3f 408c 0b3f 51b0 3bbe ee2c e9bd
000000e0: 87fe babe 42f9 173f 45d9 473d 0c74 e53e
000000f0: f5eb 2abe ea77 4e3f ffa4 553f 7843 17bc

actor.0.weight f4 [64, 64]
-0.039837826 0.1996514 0.0037494367 0.16943972 0.033510298 -0.022308858 -0.19091196 -0.12345432
-0.06298942 0.011933621 0.10507665 0.18536606 -0.17773397 0.0988662 0.1328873 -0.055620953
-0.0060127284 0.033868622 -0.06029172 -0.14526013 -0.11892637 0.07558061 0.19132002 0.026503468
-0.1595906 0.015918208 0.08558783 -0.049499806 -0.12520435 0.12717324 0.19834796 0.27090847
0.09393205 0.061032128 0.084361054 0.17542042 -0.12871036 0.11041462 -0.005618918 0.028469332
0.20519742 0.06928995 0.041573167 0.0507541 -0.0014632813 0.045091566 0.03225258 0.06217624
0.103218876 -0.07903402 0.009053856 -0.13458514 0.12799409 0.15130274 0.07253509 -0.043961186
-0.014125211 0.002453838 -0.24945994 0.09953416 -0.060674142 0.002362791 0.055372264 -0.0563367
0.21153757 -0.1610424 0.112065665 -0.095243916 0.10726049 0.013944506 0.09998388 0.09996021
0.16860951 0.047730405 -0.044226088 -0.06295762 0.013683085 -0.028373715 -0.093639605 0.09741563
0.007955873 -0.37061602 0.25597975 0.04295198 0.1067041 0.10408552 -0.041494455 -0.058317784
0.13902278 -0.021303583 0.015044085 0.26823303 0.040531605 -0.026736164 -0.17670819 -0.35273302
-0.07603844 -0.0559032 0.13740993 -0.00072857336 0.08290338 -0.078992285 -0.10412191 0.13544253
-0.2264332 -0.025438497 0.079359494 0.15992405 0.06272949 0.15272866 0.13076669 -0.112353876
-0.27675262 0.08569268 -0.16064054 0.020775562 0.014050046 -0.16939998 -0.093136825 -0.042064868
-0.16803193 0.2290148 0.19753258 -0.13978943 0.018082298 -0.060924847 0.14380023 0.021090414
0.051489517 -0.08083235 0.033963293 0.12338305 -0.07264936 0.081847996 -0.11664248 0.08310449
0.03798041 0.0018506063 -0.028397977 -0.12332314 0.100361094 0.0012537814 0.027021125 -0.016529817
-0.059121117 0.015211895 0.115773275 -0.110443264 -0.07456746 0.029306592 -0.04661144 -0.02721776
-0.013337278 0.055450622 -0.05568361 0.07695291 0.031464867 0.020784386 -0.078790456 0.05039694
-0.08853251 0.05983749 0.024350552 -0.10685829 0.0065648025 -0.14481255 -0.07842322 -0.05622449
-0.016518638 -0.10031895 0.07240572 0.025622208 -0.0609926 -0.008115098 0.032244075 -0.031995006
0.0407663 -0.033353414 0.07960673 0.03548185 0.008972566 -0.09916066 -0.09142278 -0.0691669
-0.057713985 0.04260266 0.03642182 -0.11351659 0.109689236 0.00079357944 0.017229825 0.050296824
0.014214398 0.10608265 -0.11520048 0.051960364 0.0783249 0.12870826 0.06785364 -0.069752775
0.15374027 -0.034146655 0.081925616 0.031305496 0.039199177 0.034321435 -0.022850398 -0.06609985
0.07567252 0.26424715 -0.14616792 -0.09373792 -0.040949516 -0.039760966 -0.010968431 0.019860173
0.03655676 0.06475342 -0.06397783 0.17059544 0.0864325 -0.05164908 0.015923854 0.22560774
-0.059303395 -0.031535167 -0.059921555 0.0076015317 -0.028996326 0.011051731 0.05356903 -0.021775536
0.06853654 0.028572682 0.083477676 -0.058638968 -0.055875722 0.09952984 0.0116669815 0.102584586
0.14377543 -0.110680394 0.1380434 -0.016381728 0.048664644 -0.05240067 0.010161046 0.026185552
0.026548982 0.098263085 0.006319986 0.18899655 0.1435641 0.011308685 -0.08761015 0.165839
00000000: fd2c 23bd 6b71 4c3e 1cb9 753b 9b81 2d3e
00000010: 1842 093d 11c1 b6bc 6d7e 43be 9ed5 fcbd
00000020: 9900 81bd 3c85 433c 6d32 d73d 9ad0 3d3e
00000030: e5ff 35be 5d7a ca3d 9c13 083e ccd2 63bd
00000040: 6c06 c5bb d3b9 0a3d 73f4 76bd 12bf 14be
00000050: ab8f f3bd 02ca 9a3d 65e9 433e cd1d d93c
00000060: b86b 23be e766 823c ac48 af3d 4fc0 4abd
00000070: 9235 00be b439 023e ba1b 4b3e 84b4 8a3e
00000080: 725f c03d d3fc 793d 7dc5 ac3d 69a1 333e
00000090: a6cc 03be 0f21 e23d e71e b8bb 8438 e93c
000000a0: 461f 523e e4e7 8d3d a048 2a3d 88e3 4f3d
000000b0: 93cb bfba efb1 383d 481b 043d 83ac 7e3d
000000c0: 6b64 d33d 97dc a1bd a056 143c b0d0 09be
000000d0: e210 033e 1bef 1a3e 478d 943d a510 34bd
000000e0: 6e6d 67bc 92d0 203b 6d72 7fbe 91d8 cb3d
000000f0: 7385 78bd 0ed9 1a3b 07ce 623d 50c1 66bd
00000100: 4e9d 583e 4de8 24be af82 e53d 3e0f c3bd
00000110: 63ab db3d 7f77 643c 59c4 cc3d f0b7 cc3d
00000120: f9a7 2c3e f580 433d 6a26 35bd edef 80bd
00000130: 052f 603c fe6f e8bc 1fc6 bfbd d981 c73d
00000140: 5a59 023c 62c1 bdbe c70f 833e 6aee 2f3d
00000150: ae87 da3d ca2a d53d 17f6 29bd a1de 6ebd
00000160: fd5b 0e3e da84 aebc 777b 763c d755 893e
00000170: 7804 263d cd05 dbbc fef2 34be 6c99 b4be
00000180: 0bba 9bbd c1fa 64bd 30b5 0c3e bbfd 3eba
00000190: 3fc9 a93d b5c6 a1bd de3d d5bd 72b1 0a3e
000001a0: 1bde 67be 6564 d0bc 3b87 a23d 21c3 233e
000001b0: 5278 803d e764 1c3e b4e7 053e ca19 e6bd
000001c0: 85b2 8dbe a57f af3d f47e 24be 8331 aa3c
000001d0: 2a32 663c 3077 2dbe 85be bebd 364c 2cbd
000001e0: 9010 2cbe db82 6a3e fb45 4a3e f624 0fbe
000001f0: 5421 943c 558c 79bd 5e40 133e cec5 ac3c
00000200: ace6 523d 6e8b a5bd 181d 0b3d 41b0 fc3d
00000210: 30c9 94bd ec9f a73d 41e2 eebd b032 aa3d
00000220: 5991 1b3d 0b90 f23a e0a2 e8bc d890 fcbd
00000230: 1e8a cd3d ec55 a43a 685b dd3c 8a69 87bc
00000240: fc28 72bd 503b 793c 8a1a ed3d 1430 e2bd
00000250: d3b6 98bd 6114 f03c a3eb 3ebd c8f7 debc
00000260: 9984 5abc 3120 633d 7f14 64bd 7d99 9d3d
00000270: 4ee1 003d 0444 aa3c e45c a1bd 066d 4e3d
00000280: 8850 b5bd 2818 753d cf7a c73c 85d8 dabd
00000290: 8e1d d73b be49 14be 5a9c a0bd a74b 66bd
000002a0: 1852 87bc 0674 cdbd 7349 943d aae5 d13c
000002b0: 60d3 79bd 30f5 04bc 5d12 043d 320d 03bd
000002c0: 90fa 263d 979d 08bd da08 a33d 6b55 113d
000002d0: ab01 133c be14 cbbd de3b bbbd 60a7 8dbd
000002e0: 8065 6cbd 2080 2e3d 0c2f 153d 637b e8bd
000002f0: c0a4 e03d 3708 503a 9025 8d3c 0b04 4e3d
00000300: 82e3 683c dc41 d93d 3bee ebbd 64d4 543d
00000310: ce68 a03d 19cc 033e d9f6 8a3d 8bda 8ebd
00000320: 176e 1d3e 5ddd 0bbd 9ec8 a73d 313a 003d
00000330: 518f 203d a294 0c3d c230 bbbc 5c5f 87bd
00000340: 32fa 9a3d 674b 873e 0bad 15be abf9 bfbd
00000350: aeba 27bd 65dc 22bd efb4 33bc cdb1 a23c
00000360: 8bbc 153d 719d 843d cf06 83bd 92b0 2e3e
00000370: 8603 b13d fc8d 53bd be72 823c b705 673e
00000380: 1ee8 72bd 052b 01bd 4e70 75bd 4516 f93b
00000390: b489 edbc 5212 353c 336b 5b3d 9c62 b2bc
000003a0: e35c 8c3d 4211 ea3c 58f6 aa3d 6a2f 70bd
000003b0: f1dd 64bd 4dd6 cb3d de26 3f3c de17 d23d
000003c0: de39 133e 67ac e2bd 405b 0d3e f932 86bc
000003d0: 9454 473d 16a2 56bd 847a 263c 1583 d63c
000003e0: 407d d93c 283e c93d e317 cf3b 5088 413e
000003f0: 7802 133e 1048 393c f36c b3bd b3d1 293e

actor.0.bias f4 [64]
-0.0059193657 -0.046234403 -0.0699612 -0.06601531 -0.094064 0.0023617807 0.004377499 0.044014044
-0.008425972 0.040272236 0.0025891284 0.032722265 0.11234833 0.054022614 -0.086910784 0.0063588456
-0.05319138 0.10774403 0.045765154 0.11944169 -0.0077193473 -0.09213769 -0.035730205 -0.05202403
-0.046137348 -0.058859892 -0.107479244 0.051820323 0.093748204 0.014180549 0.06620256 0.020222489
-0.087253645 -0.11394903 -0.10561015 -0.04510519 0.049624924 -0.07338705 -0.08304451 0.037079547
-0.040826626 0.03142485 0.016402964 0.11291099 0.04565014 0.010631468 0.0912438 0.0017385888
0.07411837 0.09778607 -0.04485893 0.044386834 -0.047258098 -0.008154856 0.10396113 0.12626919
0.07310677 0.041955173 0.11397443 -0.060389534 0.047127724 0.0024580692 0.045103557 0.050485812
00000000: 3df7 c1bb 4960 3dbd d147 8fbd 0933 87bd
00000010: a0a4 c0bd 1bc8 1a3b 2071 8f3b 1248 343d
00000020: 170d 0abc 80f4 243d 5eae 293b c807 063d
00000030: e216 e63d d146 5d3d 48fe b1bd dd5d d03b
00000040: 34df 59bd e7a8 dc3d 3e74 3b3d d89d f43d
00000050: 94f2 fcbb afb2 bcbd d659 12bd 2617 55bd
00000060: 84fa 3cbd 1217 71bd 141e dcbd 8c41 543d
00000070: 0fff bf3d 8955 683c 3595 873d a2a9 a53c
00000080: 0ab2 b2bd 1c5e e9bd 224a d8bd 38c0 38bd
00000090: 8143 4b3d f34b 96bd 3d13 aabd b9e0 173d
000000a0: d239 27bd 58b7 003d 825f 863c e13d e73d
000000b0: a4fb 3a3d 9c2f 2e3c 08de ba3d 5ce1 e33a
000000c0: 5fcb 973d 1044 c83d ffbd 37bd f8ce 353d
000000d0: b591 41bd f29b 05bc 93e9 d43d b64c 013e
000000e0: 01b9 953d 30d9 2b3d 6d6b e93d 045b 77bd
000000f0: 0009 413d 8f17 213b 82be 383d 36ca 4e3d

actor.2.weight f4 [2, 64]
-0.20742378 0.24568145 0.029932328 -0.15305845 0.13270566 0.099861406 0.10275036 0.101990364
-0.28135675 0.031921867 -0.062846765 -0.15662836 0.18458721 -0.15436004 -0.019940987 -0.20484702
-0.15891218 -0.14911076 -0.08911546 0.10568024 0.13129643 0.009569305 -0.041045032 0.1568639
-0.09267335 0.20327781 -0.104363605 0.06228843 0.13453236 0.034455944 -0.17381412 -0.23979649
-0.096962444 -0.047655523 -0.12747781 -0.3080953 -0.09818933 -0.04708884 -0.056195192 0.10569988
-0.22255328 -0.19558619 0.21038549 0.11030271 0.046025224 0.080499016 0.029709024 -0.028017323
0.22208126 -0.12468778 -0.20473841 0.0602421 0.06609859 0.09642339 0.04917556 0.06601183
-0.20241813 0.038743183 0.06600539 0.0790174 0.28652933 0.28826296 0.029104881 -0.004265081
0.1215438 -0.0739476 -0.08314207 0.1707119 -0.25827426 -0.21443044 -0.07914205 0.08688379
0.12983283 -0.12754148 -0.024227558 0.084178574 -0.035754923 0.0104211755 -0.022769988 0.11638993
0.1792421 0.15311015 -0.0861394 -0.0016645554 -0.21904327 -0.072630234 0.20839262 -0.13211086
0.23323625 -0.26373166 0.08011787 0.14990564 -0.12835404 0.136756 0.1658749 0.061897673
-0.050292537 0.09043059 0.08102177 0.097630695 0.16242453 0.091783084 0.10512927 -0.13053152
0.14600775 0.1608678 -0.36652207 -0.06826509 -0.11002229 -0.15867274 0.082366735 0.042435065
-0.10094031 0.2990749 0.31634584 -0.024606496 0.11994343 0.10051361 0.11043447 -0.13418856
-0.008850906 -0.07238355 -0.11767984 -0.05778034 -0.14107864 -0.12074719 -0.17131454 -0.15941633
00000000: e666 54be eb93 7b3e a434 f53c 5bbb 1cbe
00000010: fee3 073e 2384 cc3d c86e d23d 53e0 d03d
00000020: fe0d 90be 81c0 023d ceb5 80bd 2f63 20be
00000030: 6e04 3d3e 8f10 1ebe 485b a3bc 6bc3 51be
00000040: e0b9 22be 7eb0 18be 2b82 b6bd e26e d83d
00000050: 9272 063e 93c8 1c3c d61e 28bd eea0 203e
00000060: 86cb bdbd 0f28 503e 96bc d5bd 2722 7f3d
00000070: dac2 093e ad21 0d3d 54fc 31be 368d 75be
00000080: 3f94 c6bd 7032 43bd 8b89 02be abbe 9dbe
00000090: 7d17 c9bd 3ae0 40bd ee2c 66bd 2e79 d83d
000000a0: 02e5 63be bf47 48be 4b6f 573e 63e6 e13d
000000b0: f284 3c3d abdc a43d 5760 f33c 9684 e5bc
000000c0: 4569 633e 4f5c ffbd f2a6 51be 6cc0 763d
000000d0: b35e 873d a079 c53d 506c 493d 3631 873d
000000e0: b346 4fbe 2cb1 1e3d d52d 873d e0d3 a13d
000000f0: f9b3 923e 3497 933e 5c6d ee3c 18c2 8bbb
00000100: f5eb f83d d771 97bd 6446 aabd 1acf 2e3e
00000110: 863c 84be a793 5bbe 3a15 a2bd 21f0 b13d
00000120: e6f2 043e 3c9a 02be df78 c6bc d165 ac3d
00000130: c173 12bd 94bd 2a3c 2088 babc d85d ee3d
00000140: 3e8b 373e e8c8 1c3e db69 b0bd 362d daba
00000150: e14c 60be 29bf 94bd e064 553e 1248 07be
00000160: 7cd5 6e3e d607 87be d614 a43d dd80 193e
00000170: 3e6f 03be c409 0c3e 1cdb 293e 6a88 7d3d
00000180: 8cff 4dbd ac33 b93d beee a53d 9af2 c73d
00000190: 9e52 263e c5f8 bb3d 044e d73d 0eaa 05be
000001a0: 0e83 153e 87ba 243e c8a8 bbbe 91ce 8bbd
000001b0: 5e53 e1bd 1b7b 22be e4af a83d 64d0 2d3d
000001c0: cbb9 cebd 5820 993e 15f8 a13e 9093 c9bc
000001d0: e7a4 f53d 14da cd3d 782b e23d ba68 09be
000001e0: 6403 11bc d43d 94bd 2102 f1bd 14ab 6cbd
000001f0: eb76 10be 4e4a f7bd 146d 2fbe 093e 23be

actor.2.bias f4 [2]
-0.053960558 -0.057467718
00000000: bf05 5dbd 4563 6bbd

critic.0.weight f4 [64, 64]
0.20143768 -0.33692056 -0.27898443 0.052681495 0.21917565 -0.19930443 0.22085789 -0.324337
0.33288467 -0.13178848 0.14263248 0.17493136 -0.22391388 -0.36991322 0.26736638 0.2740199
0.3023816 -0.45087755 -0.2985902 0.4352206 0.25866115 0.27772427 0.21660852 -0.3223891
0.30145955 0.117713794 0.21832009 0.25981444 -0.20542377 0.2998485 0.19092762 -0.42562264
0.37103027 -0.07140501 0.21140742 0.30492193 0.33118036 -0.15025583 0.12898327 0.20167494
-0.06313185 -0.04738692 0.3646362 -0.26216885 -0.20276952 0.2736299 -0.33454886 0.31244755
-0.17575064 -0.15068677 -0.1190509 0.25222686 0.17835192 0.27732694 -0.20121317 -0.22348653
-0.31000146 0.2191154 -0.39904168 0.14130938 -0.3889697 0.14908342 0.21492384 -0.42087716
0.09496077 -0.24984346 0.12636007 -0.07281735 -0.04060307 0.09981586 0.08037513 0.08593808
-0.11797469 -0.12496487 -0.03332434 0.15887989 -0.1055345 -0.22084866 -0.023604007 0.0008585509
-0.080884255 -0.048401315 0.026044251 0.042258862 -0.012662004 -0.09624896 0.12098656 0.0017486077
0.100169 -0.011625923 0.04226641 -0.03964513 -0.04491558 -0.05290951 0.08043865 0.12885298
-0.05658548 0.034778133 0.0070173494 -0.06285776 0.09015515 -0.054086827 -0.06042599 0.010121412
0.08902073 0.11507691 0.10523818 0.0385036 0.019230787 -0.047372732 0.052001502 0.08811164
0.018945316 0.078030616 0.0830708 -0.0014421075 0.09186008 0.049458355 -0.07162179 0.12073836
0.0049480298 0.06512943 0.105777 0.1266919 -0.08913496 -0.06810612 0.05352772 -0.025774473
0.07385527 0.4741674 0.5017837 0.26745012 -0.12195865 0.23334725 -0.12493811 0.25673133
0.027766412 0.20476559 0.07820978 -0.07749164 0.086083665 0.428293 0.11003011 -0.115401275
0.08756029 0.595186 0.06806738 -0.09757054 -0.007924662 0.007498774 0.18103795 0.1431864
0.10452694 -0.01716631 0.13747351 -0.06529704 0.21040396 0.020633636 0.14823958 0.63612664
0.028090531 0.15220226 -0.041761454 -0.037908487 -0.0042121005 0.2819037 0.008584701 -0.077421166
0.16548775 0.14339077 0.027240165 0.083459675 0.19950211 -0.08512463 0.35430086 -0.09087747
0.40926564 0.0707512 0.085478984 0.032899488 0.11006913 -0.07301955 0.101423405 0.2109244
0.18825789 -0.09590786 0.38522226 0.011348139 0.22335799 0.11671603 -0.037697863 0.36242497
-0.022773877 0.026245981 -0.09752536 -0.031168714 0.020916015 -0.07347721 0.110950366 0.1025548
-0.0447758 -0.011750802 -0.0498181 -0.07274465 -0.07629809 0.025829822 -0.007008299 0.033387095
0.042944506 0.09685555 0.08623245 -0.048285738 -0.06807521 -0.029423147 0.1202286 0.08202028
-0.054886505 0.032357857 -0.12483814 0.051150233 -0.050336972 0.016855046 0.09552188 0.06568396
-0.02258028 -0.08144155 -0.11993006 -0.098967254 0.03788735 0.112186104 -0.04726687 -0.0123984665
0.088051856 -0.11144447 -0.04545425 0.021113962 -0.008038536 -0.081485495 -0.039377198 0.009840816
0.049666494 0.069155335 0.024442777 -0.0021549016 0.098685235 -0.11809486 -0.024240121 0.040273517
0.010818988 -0.11259943 -0.098376915 0.09331775 -0.00070637465 -0.07536483 0.0059489906 -0.09211308
00000000: ae45 4e3e da80 acbe 0cd7 8ebe 8dc8 573d
00000010: 956f 603e 7616 4cbe 9228 623e 800f a6be
00000020: dc6f aa3e 8ff3 06be 400e 123e 3521 333e
00000030: ae49 65be 4465 bdbe 3fe4 883e 564c 8c3e
00000040: c3d1 9a3e 6cd9 e6be d1e0 98be 3cd5 de3e
00000050: 3c6f 843e e031 8e3e a0ce 5d3e 2f10 a5be
00000060: e858 9a3e ee13 f13d 4d8f 5f3e 6606 853e
00000070: 9c5a 52be be85 993e 8882 433e 36eb d9be
00000080: aef7 bd3e ca3c 92bd 307b 583e ba1e 9c3e
00000090: 7990 a93e aadc 19be 3114 043e e083 4e3e
000000a0: 454b 81bd c918 42bd 99b1 ba3e ff3a 86be
000000b0: d0a2 4fbe 3819 8c3e fd49 abbe 20f9 9f3e
000000c0: faf7 33be a24d 1abe f5d0 f3bd e123 813e
000000d0: e3a1 363e ccfd 8d3e d30a 4ebe a7d9 64be
000000e0: 83b8 9ebe ca5f 603e 314f ccbe 68b3 103e
000000f0: 0927 c7be 53a9 183e ff14 5c3e 367d d7be
00000100: cb7a c23d f7d6 7fbe 8964 013e 4321 95bd
00000110: 684f 26bd 426c cc3d b79b a43d 4e00 b03d
00000120: b79c f1bd 95ed ffbd 1a7f 08bd 69b1 223e
00000130: 7922 d8bd 2726 62be 315d c1bc 6010 613a
00000140: a5a6 a5bd 7540 46bd c15a d53c a117 2d3d
00000150: 4b74 4fbc 2d1e c5bd cdc7 f73d 8a31 e53a
00000160: 6825 cd3d a87a 3ebc 8b1f 2d3d ef62 22bd
00000170: 66f9 37bd a4b7 58bd 05bd a43d 09f2 033e
00000180: 2dc6 67bd 8473 0e3d cbf1 e53b 92bb 80bd
00000190: 43a3 b83d 268a 5dbd 3e81 77bd 47d4 253c
000001a0: 8050 b63d 71ad eb3d 1d87 d73d f3b5 1d3d
000001b0: e289 9d3c e909 42bd 87ff 543d e073 b43d
000001c0: 3533 9b3c 84ce 9f3d 0621 aa3d 1905 bdba
000001d0: 2321 bc3d d894 4a3d 72ae 92bd ac45 f73d
000001e0: 1523 a23b 9462 853d 9da1 d83d 85bb 013e
000001f0: 648c b6bd 397b 8bbd e23f 5b3d fd24 d3bc
00000200: 6f41 973d 12c6 f23e e674 003f 39ef 883e
00000210: 75c5 f9bd 95f2 6e3e 8ddf ffbd 4a72 833e
00000220: 6376 e33c 12ae 513e 732c a03d f0b3 9ebd
00000230: a24c b03d 3849 db3e 7757 e13d 8157 ecbd
00000240: cf52 b33d 1c5e 183f e966 8b3d 10d3 c7bd
00000250: 71d6 01bc 47b8 f53b 0362 393e 759f 123e
00000260: 3812 d63d 5da0 8cbc dbc5 0c3e 74ba 85bd
00000270: 2374 573e df07 a93c 1ecc 173e 32d9 223f
00000280: 1d1e e63c e9da 1b3e 0f0e 2bbd ee45 1bbd
00000290: a905 8abb af55 903e d9a6 0c3c fd8e 9ebd
000002a0: 9f75 293e 08d5 123e c426 df3c e8ec aa3d
000002b0: 484a 4c3e d255 aebd ec66 b53e f81d babd
000002c0: 448b d13e 01e6 903d 9b0f af3d 9dc1 063d
000002d0: ed6b e13d 468b 95bd 13b7 cf3d 91fc 573e
000002e0: adc6 403e 576b c4bd da3b c53e 8bed 393c
000002f0: f5b7 643e d008 ef3d 1369 1abd c48f b93e
00000300: 4890 babc d001 d73c 60bb c7bd 8855 ffbc
00000310: 1058 ab3c 387b 96bd f239 e33d 4008 d23d
00000320: d466 37bd 7086 40bc 100e 4cbd 26fb 94bd
00000330: 2c42 9cbd 1099 d33c e0a5 e5bb e8c0 083d
00000340: 94e6 2f3d 345c c63d a49a b03d 44c7 45bd
00000350: 046b 8bbd d008 f1bc 6a3a f63d 40fa a73d
00000360: acd0 60bd ac89 043d 24ab ffbd e882 513d
00000370: 242e 4ebd 9813 8a3c faa0 c33d 5085 863d
00000380: 48fa b8bc d4ca a6bd e49d f5bd 58af cabd
00000390: c42f 1b3d d4c1 e53d e89a 41bd f022 4bbc
000003a0: 8854 b43d 003d e4bd 3c2e 3abd 30f7 ac3c
000003b0: 10b4 03bc dee1 a6bd fc49 21bd 603b 213c
000003c0: 186f 4b3d 50a1 8d3d 383c c83c 4039 0dbb
000003d0: 7c1b ca3d b8db f1bd 3893 c6bc d8f5 243d
000003e0: 2042 313c 889a e6bd d679 c9bd 601d bf3d
000003f0: 002c 39ba e058 9abd c0ef c23b c8a5 bcbd

critic.0.bias f4 [64]
0.37467256 -0.109648675 0.08334967 -0.028678223 0.28977668 0.2401108 0.16397025 -0.15375003
0.2724505 0.009133132 0.21216728 0.20958805 0.04738931 -0.021338768 0.21629758 0.35825133
0.33673713 0.0357983 -0.13105342 -0.075318575 0.31443962 -0.07472231 0.28985903 0.0023508607
0.40421963 -0.13562703 0.32527518 -0.007863981 -0.05194741 0.18463974 -0.03659969 -0.018390505
0.28707883 0.3587382 -0.007883018 0.022744888 -0.14921606 0.020307764 -0.08518207 -0.14645699
0.45154342 0.33668974 0.35471094 0.3439272 0.12176096 -0.02433821 0.32023197 0.25565523
0.21434635 0.24039881 0.30004758 0.006275999 0.03853963 -0.123400085 0.16454287 -0.14256845
-0.039503135 0.35392687 0.12661687 -0.0051217293 0.069449164 -0.09473935 0.42103416 -0.12922552
00000000: 15d5 bf3e 7c8f e0bd 3bb3 aa3d 98ee eabc
00000010: 9c5d 943e 9bdf 753e d1e7 273e a670 1dbe
00000020: a27e 8b3e 22a3 153c 6142 593e 409e 563e
00000030: 4b1b 423d a4ce aebc 1d7d 5d3e b86c b73e
00000040: cf68 ac3e 3da1 123d de32 06be a040 9abd
00000050: 3bfe a03e 0308 99bd 6768 943e e610 1a3b
00000060: e0f5 ce3e d0e1 0abe 788a a63e edd7 00bc
00000070: cfc6 54bd 3312 3d3e 8ee9 15bd afa7 96bc
00000080: fffb 923e 89ac b73e c627 01bc 7d53 ba3c
00000090: 18cc 18be 785c a63c f073 aebd d2f8 15be
000000a0: b330 e73e 9962 ac3e ac9c b53e 3a17 b03e
000000b0: cf5d f93d ed60 c7bc 72f5 a33e 3ee5 823e
000000c0: 9c7d 5b3e 1b2b 763e d69f 993e e5a6 cd3b
000000d0: bbdb 1d3d 2fb9 fcbd ed7d 283e 77fd 11be
000000e0: 0ace 21bd e735 b53e daa7 013e 2ed4 a7bb
000000f0: 5d3b 8e3d b406 c2bd ca91 d73e b253 04be

critic.2.weight f4 [1, 64]
0.4664192 -0.055131223 -0.44871244 -0.026949212 0.48271456 0.43833053 0.46712205 -0.29318914
0.4765171 0.09238114 0.47545758 0.47773242 -0.30468756 -0.4392719 0.5011038 0.50589055
0.38594526 -0.3385428 0.09531433 -0.3472344 0.45813888 -0.39075202 0.43553087 -0.47461063
0.39411607 -0.07858584 0.5257595 -0.065381266 -0.43895754 0.41181907 -0.4117281 -0.36292452
0.44551593 0.42493472 -0.3468448 -0.5346705 -0.44670403 0.049779788 0.07202893 -0.5435086
0.3898372 0.48425955 0.3978986 0.51101494 -0.30858934 0.024199057 0.40992853 0.41589797
0.44106266 0.3869884 0.43236944 -0.37902153 -0.37303245 -0.020027392 0.42240936 -0.5265454
-0.31291524 0.39473447 0.4740804 -0.34297255 -0.46537635 -0.49926302 0.49138692 0.042467866
00000000: 7fce ee3e 47d1 61bd a3bd e5be 98c4 dcbc
00000010: 5d26 f73e dc6c e03e 9f2a ef3e e31c 96be
00000020: 0dfa f33e 5332 bd3d 2d6f f33e 5899 f43e
00000030: 0200 9cbe 3fe8 e0be 5748 003f 0b82 013f
00000040: 9e9a c53e 7b55 adbe 2934 c33d b5c8 b1be
00000050: 2e91 ea3e a610 c8be e7fd de3e 2a00 f3be
00000060: 95c9 c93e 9df1 a0bd 2d98 063f 9de6 85bd
00000070: 0bbf e0be f3d9 d23e 07ce d2be 3ed1 b9be
00000080: aa1a e43e 0b91 d93e a495 b1be 2ae0 08bf
00000090: 64b6 e4be e4e5 4b3d e783 933d 6123 0bbf
000000a0: be98 c73e def0 f73e 5eb9 cb3e e0d1 023f
000000b0: 6cff 9dbe 1a3d c63c 27e2 d13e 94f0 d43e
000000c0: f7d2 e13e 5823 c63e 875f dd3e 1c0f c2be
000000d0: 1cfe bebe 7c10 a4bc 0a46 d83e aecb 06bf
000000e0: 6d36 a0be a31a ca3e abba f23e 199a afbe
000000f0: cf45 eebe 679f ffbe 1197 fb3e c9f2 2d3d
